…
saving  3  num of train and test image at every epoch
deleting previous data
selected batch size 128
Files already downloaded and verified
Files already downloaded and verified
Number of training examples: 162770
size of images:  torch.Size([3, 64, 64])
shape of input image is : torch.Size([3, 64, 64])
==========================================================================================
Layer (type:depth-idx)                   Output Shape              Param #
==========================================================================================
betaVAE                                  [128, 3, 64, 64]          --
├─Conv2d: 1-1                            [128, 32, 32, 32]         896
├─BatchNorm2d: 1-2                       [128, 32, 32, 32]         64
├─ReLU: 1-3                              [128, 32, 32, 32]         --
├─Conv2d: 1-4                            [128, 64, 16, 16]         18,496
├─BatchNorm2d: 1-5                       [128, 64, 16, 16]         128
├─ReLU: 1-6                              [128, 64, 16, 16]         --
├─Conv2d: 1-7                            [128, 128, 8, 8]          73,856
├─BatchNorm2d: 1-8                       [128, 128, 8, 8]          256
├─ReLU: 1-9                              [128, 128, 8, 8]          --
├─Conv2d: 1-10                           [128, 256, 4, 4]          295,168
├─BatchNorm2d: 1-11                      [128, 256, 4, 4]          512
├─ReLU: 1-12                             [128, 256, 4, 4]          --
├─Flatten: 1-13                          [128, 4096]               --
├─Linear: 1-14                           [128, 512]                2,097,664
├─ReLU: 1-15                             [128, 512]                --
├─Linear: 1-16                           [128, 256]                131,328
├─ReLU: 1-17                             [128, 256]                --
├─Linear: 1-18                           [128, 128]                32,896
├─Linear: 1-19                           [128, 128]                32,896
├─Linear: 1-20                           [128, 256]                33,024
├─ReLU: 1-21                             [128, 256]                --
├─Linear: 1-22                           [128, 512]                131,584
├─ReLU: 1-23                             [128, 512]                --
├─Linear: 1-24                           [128, 4096]               2,101,248
├─ReLU: 1-25                             [128, 4096]               --
├─ConvTranspose2d: 1-26                  [128, 128, 8, 8]          295,040
├─BatchNorm2d: 1-27                      [128, 128, 8, 8]          256
├─ReLU: 1-28                             [128, 128, 8, 8]          --
├─ConvTranspose2d: 1-29                  [128, 64, 16, 16]         73,792
├─BatchNorm2d: 1-30                      [128, 64, 16, 16]         128
├─ReLU: 1-31                             [128, 64, 16, 16]         --
├─ConvTranspose2d: 1-32                  [128, 32, 32, 32]         18,464
├─BatchNorm2d: 1-33                      [128, 32, 32, 32]         64
├─ReLU: 1-34                             [128, 32, 32, 32]         --
├─ConvTranspose2d: 1-35                  [128, 3, 64, 64]          867
├─BatchNorm2d: 1-36                      [128, 3, 64, 64]          6
├─Sigmoid: 1-37                          [128, 3, 64, 64]          --
==========================================================================================
Total params: 5,338,633
Trainable params: 5,338,633
Non-trainable params: 0
Total mult-adds (Units.GIGABYTES): 10.23
==========================================================================================
Input size (MB): 6.29
Forward/backward pass size (MB): 274.46
Params size (MB): 21.35
Estimated Total Size (MB): 302.11
…
